latest.pth (torch, 4596 bytes, 7 tensors)

fully_connected_1.weight f4 [16, 4]
-0.76628315 0.1057951 0.42030615 -0.15415478 0.1115787 0.14562425 -0.007860334 0.046183467
0.1485415 1.2403044 -1.2512299 0.49697888 0.205325 6.467104e-05 0.2639292 0.26190662
0.3907981 -0.94631 -0.2778368 -0.2097624 -0.14976418 -0.811871 0.0822649 -0.42343652
-0.29391095 0.18684776 0.2712299 -0.31618673 -1.0306599 -0.083516635 0.12476075 -0.1513533
-0.100390874 0.45945212 -0.17562656 -0.023394644 0.23774911 1.173079 -1.1106097 0.23362118
0.61077046 0.3081089 0.41716138 0.34330356 -0.4684561 -0.9881165 0.22622055 -0.023130357
-0.14584944 0.96948165 -0.55350727 -0.45304728 -0.25323084 1.2388628 -1.0444466 -0.26542848
0.13266492 -1.0891486 -0.14592081 0.02562809 0.020145003 0.7621287 -0.9138662 -0.3337112
00000000: 222b 44bf 1aab d83d 5e32 d73e c0da 1dbe
00000010: 6083 e43d 861e 153e a1c8 00bc e02a 3d3d
00000020: 431b 183e 4bc2 9e3f 4d28 a0bf 0474 fe3e
00000030: b840 523e 00a0 8738 ba21 873e a018 863e
00000040: b016 c83e 5f41 72bf a040 8ebe f4cb 56be
00000050: c85b 19be c7d6 4fbf 807a a83d accc d8be
00000060: 7f7b 96be 0555 3f3e a5de 8a3e 3ae3 a1be
00000070: aaec 83bf c50a abbd 9082 ff3d 5cfc 1abe
00000080: bb99 cdbd 4f3d eb3e 73d7 33be 20a6 bfbc
00000090: 8174 733e 7427 963f 7528 8ebf 643a 6f3e
000000a0: 745b 1c3f 73c0 9d3e 2d96 d53e 7cc5 af3e
000000b0: 7ad9 efbe 34f5 7cbf 5ca6 673e e07b bdbc
000000c0: 8e59 15be f32f 783f a7b2 0dbf d0f5 e7be
000000d0: 79a7 81be 0e93 9e3f 6db0 85bf 3ee6 87be
000000e0: 50d9 073e 3969 8bbf 446c 15be 00f2 d13c
000000f0: 2207 a53c de1a 433f 23f3 69bf 32dc aabe

fully_connected_1.bias f4 [16]
1.1573544 -0.15945551 0.0079369 -0.3757934 -0.00019767736 0.26206475 0.5669842 0.9024962
0.5305888 -0.00033553102 0.58296776 -0.0013144384 0.3770874 -0.12772493 -0.005372228 0.8082276
00000000: 3024 943f 4e48 23be c509 023c fe67 c0be
00000010: 9d47 4fb9 5a2d 863e e025 113f fe09 673f
00000020: abd4 073f 36ea afb9 603d 153f 3c49 acba
00000030: 9a11 c13e 53ca 02be 8409 b0bb 01e8 4e3f

fully_connected_2.weight f4 [16, 16]
0.15914778 -0.06552854 -0.24407038 -0.013203979 -0.24876626 0.1451242 -0.22525014 0.06117202
0.19112831 0.03622225 -0.14526571 0.15355237 -0.2053585 0.0053581 -0.2051751 -0.22393945
0.21653003 -0.17427716 -0.99614143 0.21491125 -0.21147934 0.3552227 0.4150101 -0.035556987
0.4797652 -0.7782624 0.46786988 -0.5535614 0.2145989 -0.7904337 -0.18326001 0.43847856
-0.6681606 0.22713023 0.15437183 0.027629644 0.20679139 0.2613935 0.054869667 -0.38865498
0.14862527 -0.10945416 0.10352462 -0.10428603 0.4394944 0.30243844 0.04846709 0.39510486
-0.061858922 -0.19452965 -0.023757994 -0.080102086 0.233666 -0.13537517 -0.080365 0.022152185
-0.058084935 -0.046393782 -0.17531729 0.14816242 0.11176115 0.10406053 0.069949776 0.04955122
-0.6100169 0.11419404 0.3097472 0.026911765 0.16033678 0.01746737 0.2082178 -0.50873303
-0.08688115 0.3223455 -0.12806563 -0.10128256 0.17605615 0.3216691 -0.10777917 0.30464515
0.41071168 0.21290757 -0.84575045 0.11046198 -0.19153294 0.30132362 0.30264926 0.24577579
0.14867793 -0.5960406 0.4371877 -0.27409485 0.059544116 -0.8327659 -0.4528179 0.044166602
0.35461718 0.09284219 -0.12668452 -0.21673301 0.6461773 0.7769472 -0.01772858 0.5286824
-0.64555514 -0.04187969 -0.29590118 0.68350804 -0.33778822 -0.255343 0.5837258 -0.77386075
0.14110792 0.027569244 -0.009894968 0.1497877 0.44850236 0.6261861 -0.079920545 0.37607682
-0.48967543 0.09588637 -0.1873687 0.8361187 -0.3716027 -0.02263975 0.88052547 -0.45352387
-0.45260808 -0.021298831 0.26643828 0.20520067 0.20963344 -0.10239351 -0.2175148 -0.6927095
0.37697497 0.3207983 -0.034116 -0.6291509 0.5334509 0.37331143 0.03166604 0.19170846
0.33227384 -0.09142959 -0.29706207 -0.15235898 0.13444267 0.33856413 -0.22671822 0.18590659
-0.46546078 -0.26916733 -0.15740824 0.58198774 -0.027058305 -0.034491457 0.27654827 -0.3218514
0.10162178 -0.19489086 -0.114209265 -0.22578976 -0.04955092 -0.20790032 0.054626193 -0.23437624
0.04697788 0.035056263 0.020374624 -0.08844161 -0.24257399 0.08132428 -0.1641283 -0.16317883
-0.041886628 -0.18836582 0.14790682 0.011791378 -0.20888114 0.15378514 -0.2366982 -0.24142668
-0.16447988 0.1289778 -0.08539615 -0.18602768 0.2002755 0.15226957 0.16864121 -0.2724209
0.19382033 0.15981153 -0.20079145 0.057345837 0.2338976 -0.06704596 -0.17713878 -0.24951303
-0.15212077 -0.0969325 -0.1271185 -0.24305752 -0.038226575 0.19518963 -0.08420688 -0.015354246
0.27956164 0.012411519 -0.7507033 -0.11387476 -0.53180265 0.117763884 0.4528502 0.33267882
0.3731413 -0.5808516 0.3364784 -0.58109385 -0.26572487 -0.3832562 0.0064072264 -0.0070577753
0.9004988 0.19445145 0.4552451 -0.16251218 -0.18785413 -0.17183058 0.74579066 0.89136976
0.676088 0.051097248 0.42253566 -0.34248084 0.5777193 0.042905748 -0.0010068944 0.68614256
0.35049263 -0.2176328 -0.4452083 0.03693092 0.3703739 0.58364433 -0.1841914 0.099591225
-0.35273933 -0.35924715 -0.23143655 0.7777373 -0.21008642 -0.25130558 0.6342171 -0.2114991
00000000: a3f7 223e d433 86bd 96ed 79be 8055 58bc
00000010: 95bc 7ebe 709b 143e f9a7 66be 838f 7a3d
00000020: 24b7 433e c85d 143d 89c0 14be d53c 1d3e
00000030: 8049 52be 0093 af3b 6c19 52be 6250 65be
00000040: 0cba 5d3e b675 32be 2003 7fbf b211 5c3e
00000050: 0a8e 58be c0df b53e 347c d43e 34a4 11bd
00000060: c9a3 f53e 343c 47bf a48c ef3e 33b6 0dbf
00000070: d0bf 5b3e dd59 4abf 83a8 3bbe 4380 e03e
00000080: 930c 2bbf d494 683e a613 1e3e 9057 e23c
00000090: 1fc1 533e 5ed5 853e 04bf 603d c9fd c6be
000000a0: 3931 183e 8129 e0bd b704 d43d ea93 d5bd
000000b0: 6905 e13e 36d9 9a3e 6d85 463d 2f4b ca3e
000000c0: c85f 7dbd c832 47be 20a0 c2bc 900c a4bd
000000d0: 2446 6f3e ca9f 0abe 6896 a4bd 8078 b53c
000000e0: 78ea 6dbd 6807 3ebd 6086 33be e4b7 173e
000000f0: 08e3 e43d b01d d53d d441 8f3d 38f6 4a3d
00000100: 112a 1cbf 91de e93d 2f97 9e3e 1076 dc3c
00000110: 532f 243e bb17 8f3c 0c37 553e 543c 02bf
00000120: bfee b1bd 780a a53e a323 03be 3b6d cfbd
00000130: 1048 343e d0b1 a43e 53bb dcbd 73fa 9b3e
00000140: cd48 d23e 7104 5a3e 1a83 58bf e439 e23d
00000150: 3621 44be 1747 9a3e d8f4 9a3e a6ac 7b3e
00000160: 073f 183e 1e96 18bf 11d7 df3e 2956 8cbe
00000170: 88e4 733d 2530 55bf bfd7 e7be 0ae8 343d
00000180: 6290 b53e 0c24 be3d 96b9 01be 42ef 5dbe
00000190: e06b 253f 03e6 463f 873b 91bc bb57 073f
000001a0: 1a43 25bf 0a8a 2bbd 5c80 97be 62fa 2e3f
000001b0: 94f2 acbe 51bc 82be 0e6f 153f bd1b 46bf
000001c0: 987e 103e e5d8 e13c 811e 22bc f261 193e
000001d0: 1aa2 e53e bb4d 203f 62ad a3bd 248d c03e
000001e0: bdb6 fabe 1360 c43d 95dd 3fbe e00b 563f
000001f0: b642 bebe ff76 b9bc 1e6a 613f 4834 e8be
00000200: 3fbc e7be e37a aebc 996a 883e 2020 523e
00000210: 26aa 563e b0b3 d1bd 33bc 5ebe 6955 31bf
00000220: dd02 c13e ad3f a43e 38bd 0bbd 0910 21bf
00000230: 3d90 083f ad22 bf3e 40b4 013d 394f 443e
00000240: cc1f aa3e 703f bbbd 8518 98be fe03 1cbe
00000250: 57ab 093e 4758 ad3e d228 68be 4c5e 3e3e
00000260: e050 eebe 4dd0 89be a02f 21be 26fd 143f
00000270: 61a9 ddbc ea46 0dbd bc97 8d3e b5c9 a4be
00000280: 141f d03d 7891 47be 8ce6 e9bd 6e35 67be
00000290: e8f5 4abd d2e3 54be b7bf 5f3d 5300 70be
000002a0: e16b 403d 2897 0f3d afe8 a63c e020 b5bd
000002b0: 5165 78be 588d a63d 4011 28be 5a18 27be
000002c0: 5091 2bbd f8e2 40be e374 173e a030 413c
000002d0: f0e4 55be da79 1d3e 0361 72be 8e38 77be
000002e0: 6a6d 28be c212 043e 2de4 aebd 0a7e 3ebe
000002f0: 0515 4d3e 8eec 1b3e 48b0 2c3e c17a 8bbe
00000300: d678 463e a2a5 233e 469c 4dbe 78e3 6a3d
00000310: da82 6f3e 644f 89bd de63 35be 5880 7fbe
00000320: 8cc5 1bbe 8c84 c6bd 5a2b 02be 12e4 78be
00000330: 7893 1cbd cadf 473e a874 acbd 6090 7bbc
00000340: b422 8f3e af59 4b3c 172e 40bf 2c37 e9bd
00000350: 3824 08bf 312e f13d fbdb e73e e154 aa3e
00000360: 600c bf3e b1b2 14bf e646 ac3e 91c2 14bf
00000370: 170d 88be 283a c4be b6f3 d13b e944 e7bb
00000380: 1787 663f 481e 473e e315 e93e 9869 26be
00000390: d55c 40be 5bf4 2fbe 23ec 3e3f cf30 643f
000003a0: 1a14 2d3f 594b 513d 9856 d83e a659 afbe
000003b0: 69e5 133f f0bd 2f3d c5f9 83ba 0aa7 2f3f
000003c0: c573 b33e 22db 5ebe 58f2 e3be e044 173d
000003d0: a6a1 bd3e b769 153f ac9c 3cbe 7cf6 cb3d
000003e0: 409a b4be 3eef b7be b4fd 6cbe cb19 473f
000003f0: e520 57be 20ab 80be 0d5c 223f 3893 58be

fully_connected_2.bias f4 [16]
0.0117994035 0.42365026 0.06275144 -0.22107372 -0.18688716 0.5728767 0.16843246 0.22502004
-0.32220006 0.06977212 0.029389376 -0.061363433 -0.052853703 0.13165833 0.7303737 0.025703117
00000000: 4952 413c b0e8 d83e d483 803d 2661 62be
00000010: 595f 3fbe 0ca8 123f 8f79 2c3e a76b 663e
00000020: 68f7 a4be afe4 8e3d fdc1 f03c 3958 7bbd
00000030: 207d 58bd 71d1 063e c5f9 3a3f 588f d23c

action_head.weight f4 [4, 16]
0.11439744 -0.11098231 -0.095140144 0.24963897 0.3036853 -0.14050998 0.6040609 0.5929522
0.2524323 0.474373 0.191587 -0.009801884 0.13458288 -0.11786377 -0.5748442 0.49053892
0.10123562 0.7561929 -0.31746298 -0.20096645 -0.79156804 0.5778597 -1.1100354 -1.6600413
-0.74126476 -0.9675932 -0.16500096 0.16180462 -0.17534119 0.34966367 -0.033000123 -1.1186255
-0.064455844 -0.86666816 -0.3808538 0.16381165 -1.1530781 0.08704321 0.29616058 0.46983528
-0.9227851 0.21735956 0.16957311 0.0643512 0.09061703 -1.1222886 0.41463026 0.39240128
-0.18697414 -1.1795282 -1.2513328 0.21768793 -1.3164634 -0.65221757 0.3397239 0.4381071
-1.3051225 0.14286216 -0.13486345 -0.1542545 -0.056239963 -1.7044678 -0.77601075 0.6080204
00000000: 3449 ea3d b14a e3bd d6d8 c2bd 5ca1 7f3e
00000010: a47c 9b3e d9e1 0fbe bca3 1a3f b7cb 173f
00000020: ce3e 813e 05e1 f23e 622f 443e 1598 20bc
00000030: 18d0 093e 8f62 f1bd fd28 13bf eb27 fb3e
00000040: 9f54 cf3d dc95 413f 828a a2be 26ca 4dbe
00000050: 34a4 4abf 9dee 133f a415 8ebf 3c7c d4bf
00000060: 87c3 3dbf 30b4 77bf 03f6 28be 1cb0 253e
00000070: a48c 33be 1e07 b33e 232b 07bd 1f2f 8fbf
00000080: 6d01 84bd f7dd 5dbf 45ff c2be 3ebe 273e
00000090: 1098 93bf b643 b23d 5ca2 973e 408e f03e
000000a0: a53b 6cbf 8193 5e3e 93a4 2d3e 90ca 833d
000000b0: 6c95 b93d 27a7 8fbf 6b4a d43e d2e8 c83e
000000c0: 2676 3fbe c8fa 96bf ac2b a0bf 96e9 5e3e
000000d0: df81 a8bf bbf7 26bf 4bf0 ad3e 934f e03e
000000e0: 410e a7bf 754a 123e a519 0abe e4f4 1dbe
000000f0: e05b 66bd 002c dabf a4a8 46bf 3aa7 1b3f

action_head.bias f4 [4]
-0.03870589 0.050769452 -0.0022068005 -0.73785853
00000000: 118a 1ebd a1f3 4f3d f89f 10bb 4ce4 3cbf

value_head.weight f4 [1, 16]
0.14380103 0.9842646 0.9549159 -0.14154065 0.23643377 0.37805426 -0.6552507 -0.9313164
1.0005964 -0.04119002 -0.07523379 -0.12635988 -0.051965624 1.1294444 0.337781 -0.6516175
00000000: 9440 133e c4f8 7b3f 5e75 743f 08f0 10be
00000010: b21b 723e 5490 c13e 83be 27bf c06a 6ebf
00000020: 8b13 803f deb6 28bd 2c14 9abd 7c64 01be
00000030: e8d9 54bd a291 903f a2f1 ac3e 68d0 26bf
